tf-lite-models/1.tflite (tflite, 509544 bytes, 16 tensors)

arith.constant2 f4 [11]
00000000: 3a12 273e edc9 4fbc 6077 6a3d 5134 b0bd
00000010: cdeb 9bbd cd31 36be a82a 913d a5c5 e53c
00000020: 9c8f cd3d 3f36 5bbc 29ed b0bc
0.16315547 -0.01268242 0.05724275 -0.086037286 -0.07613335 -0.17792435 0.07088214 0.028048346
0.10037157 -0.0133796325 -0.021597462

arith.constant3 f4 [128]
00000000: 94fe 893d 265a 1f3d d983 41be f406 1a3d
00000010: f1d1 bcbb e147 93bd 8223 8abd 1383 debd
00000020: 14b1 4ebd 7da7 f03a 0f5c 99bc 6991 e2bb
00000030: 0aff 4cbe 39e7 46bd 4298 843d 7eb6 26bd
00000040: 70e7 12bd 26d0 d13c 6231 45bd 56cd 89bd
00000050: d27c 3bbd 0ba2 613d a725 e33d ad3c 30bd
00000060: 1821 efbc 26da 05bd 0188 93bd 8db0 bfbc
00000070: f3b8 e4bc 6158 af3d 4722 b7bd c5ca f5bc
00000080: 1166 a23b 9d26 d4bd 368f 9c3d 2bef 86bd
00000090: 750c c1bc 2c31 45bd 6916 c03d a37a 79bc
000000a0: 999f d13d b588 93bd 8016 da3d 8964 78bd
000000b0: e4ac aaba 8800 00bd 6e20 06bd 752a 62bd
000000c0: 74e0 f1bc 773f 13bd f33f 15bd ba7c b9bd
000000d0: c4e7 803d 36ff bf3b 5480 69bd 05e9 10bd
000000e0: 7f16 a63d 0c54 763d c6f2 8dbc bf6e 3d3c
000000f0: fa13 b6bd 098c 54bd 430c 43bd 524c 42bd
00000100: dea8 20bd 4070 da3d eba7 87bd 4592 1f3e
00000110: 4702 e33d 5845 e6bc 0d46 15bd 488f 01be
00000120: a601 4c3c edbf 263e a092 09be 755f 7dbd
00000130: e50f 35bd cc63 d7bd 8834 a4bd 92ba ef3d
00000140: 274e 1bbd 9bac 1dbd f2f1 0abd 1d1f a0bd
00000150: 5761 db3d 2a2f bdbb 2ccf 503d 38d0 c13d
00000160: b43e 8a3d f9b3 a1bd 3bc7 613d c578 83bd
00000170: 159a 0fbe 378f 9f3d eb12 d43c 9317 97bd
00000180: 65ef 03bd c404 79bd 4fa0 383d f72e 16bd
00000190: 0506 90bd 50bf 79bd e584 4dbd 170c fdbc
000001a0: 943f 72bd 2d94 6fbd 97c1 8b3d 1df4 d3bc
000001b0: 8ffe 10bd cd23 eebc 53b4 423e 41f1 33bd
000001c0: 6436 6abd d76d 023d a541 3a3c 0606 b8bd
000001d0: 8293 ee3c ace7 353d b41f b0ba b603 7f3d
000001e0: 13fd 7cbd 80f0 353c 98c4 a2bd 8741 53be
000001f0: dada 38bd e95b e9bd 3382 073d 78bf f2bd
0.0673801 0.03890433 -0.18897952 0.037604287 -0.0057623317 -0.07191444 -0.06745054 -0.10864844
-0.050461844 0.0018360462 -0.018720655 -0.006914307 -0.20019165 -0.048560355 0.064743534 -0.04070138
-0.035865247 0.025611948 -0.0481428 -0.06728618 -0.045773335 0.055086177 0.11091166 -0.043026615
-0.029190585 -0.032678746 -0.07203675 -0.023399616 -0.027920222 0.08561779 -0.08942085 -0.030003915
0.004956015 -0.103589274 0.07644503 -0.065885864 -0.02356551 -0.048142597 0.093792744 -0.015226993
0.10235519 -0.07203809 0.10648823 -0.060642753 -0.0013021496 -0.031250507 -0.03274577 -0.05521627
-0.029525973 -0.035949197 -0.03643794 -0.09056993 0.06294206 0.005859281 -0.05700715 -0.035378475
0.081097595 0.060138747 -0.017327677 0.011562048 -0.08890529 -0.05189136 -0.047619116 -0.047436066
-0.039223544 0.10665941 -0.06623825 0.15583141 0.11084419 -0.028109238 -0.03644376 -0.12652314
0.012451565 0.16284151 -0.13434839 -0.061858613 -0.04420461 -0.105170816 -0.08017832 0.11705507
-0.03791633 -0.038494688 -0.033922143 -0.078184344 0.107119255 -0.0057734447 0.050978824 0.09463543
0.06750241 -0.07895655 0.05512164 -0.06419519 -0.14023621 0.07790988 0.025887927 -0.07377543
-0.032210726 -0.06079556 0.045074757 -0.036665883 -0.07032398 -0.060973465 -0.050175566 -0.030889554
-0.059142664 -0.05849092 0.06824034 -0.025873238 -0.035399016 -0.029069806 0.190141 -0.04393125
-0.057180777 0.031843033 0.01136819 -0.08985524 0.029123072 0.044410393 -0.0013437183 0.0622594
-0.061764788 0.011104703 -0.079476535 -0.20630465 -0.045130588 -0.113944836 0.033083152 -0.11852926

arith.constant4 f4 [32, 3, 3, 3]
00000000: 0bcf ebb9 c919 053a 9b40 8639 eeee e4b7
00000010: a4e2 073a 3a9b beb9 7ff1 c7b9 6e1a 123a
00000020: bbe8 d2b8 4ca0 2c39 342b 3a3a 1aac 08ba
00000030: cf36 7eb8 8ae9 e038 8383 c6b9 7b07 e639
00000040: cc81 483a 36ab 28ba cd65 a1b9 44c0 8f37
00000050: e092 acb9 b335 0539 646a 413a 9eee ccb9
00000060: 6e96 11ba 567e 94b9 2255 7a39 b7f3 dfb9
00000070: baac d0b9 2d62 ef39 1d81 9a38 b835 e5b8
00000080: 5884 cf39 2398 8bb8 8ea7 23ba f99f bf39
00000090: 287e ef39 70ee 43ba 91d4 d4b7 efae d839
000000a0: 770e f2b9 585a 8339 2dc6 3339 c3e1 44ba
000000b0: 9a9e dc38 5d6b be38 79b3 44ba d1c6 ca38
000000c0: bb3c 85b8 811f 08b8 abdf d039 228e d6b9
000000d0: 0f3b 57ba fe45 0c3a 0209 e0b9 9890 5db9
000000e0: def6 2cb8 3747 ba39 19b3 7ab9 3380 d139
000000f0: b3f8 e5b9 ee3e db38 5230 6138 0501 1e39
00000100: 2f02 ac39 3d7a fe38 239e f638 d270 9fb9
00000110: 0d47 cfb9 0d01 1db9 58d4 9938 f05b 8b39
00000120: 8ca4 0d39 77c8 c0b9 b37e 3239 7d65 9439
00000130: 4d2e a3b9 7d42 e639 be3a 07ba 5ef6 eeb9
00000140: 24c7 ceb9 2f8a 2db8 b721 013a 7700 3f3a
00000150: 03b3 9a39 7402 7039 9430 ca39 e368 8c39
00000160: 3bd2 aeb9 9e6a 013a 478b d639 14d7 0fba
00000170: 4d66 59b9 4db0 6b39 6751 9939 f2ab 0cba
00000180: 2af7 1ab9 75d9 0b3a 1760 b2b8 9daa dcb9
00000190: 316d eab9 f84e dfb9 8190 14ba 6550 0e39
000001a0: 73f4 c1b9 b78c 45ba 0c37 86b8 ea2d 06ba
000001b0: 6d45 f937 7d07 20ba 9f39 d139 f3e5 c4b9
000001c0: d516 f839 57f3 9639 f1c5 0239 2878 033a
000001d0: b1cb 8339 9a3a 41ba d2ed d437 dc27 e338
000001e0: 0f50 4bb9 0d4d 27ba 896b 23ba 5d3b a139
000001f0: 0896 5d39 8227 dc39 5255 30ba 56d1 deb9
00000200: 6e67 8db9 eb36 47ba b900 7f38 a012 b7b9
00000210: 4e24 9a39 22f0 6139 a446 d0b9 3831 94b9
00000220: 451b 153a 9e2b f938 8e6c e5b9 6f50 dbb5
00000230: 1f0b 9539 7d47 07ba 5d0c 543a 0e52 07b9
00000240: 0f24 39ba a2f7 133a 1709 c4b9 7be0 77ba
00000250: 8531 2739 7192 c2b7 5eb6 6dba c98d 9d39
00000260: f416 b836 b65f 78ba 287b bf39 c52d 113a
00000270: 9254 54b9 a017 39b9 4e53 7839 48f1 18ba
00000280: 7ba5 f8b8 4c52 073a c1f2 adba f7f8 8bba
00000290: 6884 af39 2425 71ba 9048 67ba e1b8 bf39
000002a0: 90f1 b7b9 c2c7 4cba f68c 0a39 388a b4ba
000002b0: 40be 64ba 1319 0c38 a35f 65ba 62dd 84ba
000002c0: 3cb4 9cb9 0d39 bbba 8357 0ab9 384f d139
000002d0: beef 19ba 533c 60ba 043c b1b7 0aab aeba
000002e0: e26d 9cba 5886 d839 8aa3 1fba b628 89ba
000002f0: b2af 063a 9c7b 8739 8f02 7a39 9d82 03ba
00000300: cc4b 3ab9 43d6 33b9 9821 b1b9 41ec ca39
00000310: ace7 5439 30da 5f39 7cc2 c9b9 4e30 093a
00000320: fcf6 7339 db68 fbb8 f7a4 1b3a 4e5f 3c38
00000330: 5903 0a3a ab26 aab5 fa1e fbb9 b082 c639
00000340: e307 e539 4059 5739 efe9 66b9 a338 3d3a
00000350: 58ae 2eba 2137 8739 d31c 7e39 9481 dab9
00000360: 39c7 6cb9 6538 f436 2fe2 abb6 01ca 6bb9
00000370: 572c 8937 f500 263a 8c24 073a 2e81 1cba
00000380: 76f4 96b7 7655 58b9 12eb dab8 b38d d939
00000390: 54b0 dab9 a1f5 01b9 fe8b 6539 b479 8239
000003a0: bcff a639 9f22 e139 4842 e2b9 da72 18ba
000003b0: adbd 353a 7475 f7b8 3f7a d4b8 61c0 f639
000003c0: 30d4 06b9 dd3d 01b9 3366 053a bb78 07ba
000003d0: e4e5 03b9 f076 56ba a32a 19ba cb10 e0b9
000003e0: a234 0fba ea59 e1b9 381f 0a39 736a dfb8
000003f0: 1838 e7b8 dcc9 dab7 c025 49ba a21d f1b8
-0.00044976952 0.00050773897 0.00025606607 -2.7290978e-05 0.00051836134 -0.00036355277 -0.00038136166 0.00055733963
-0.0001005693 0.00016462913 0.00071017747 -0.00052136334 -6.0609364e-05 0.000107246524 -0.00037863487 0.00043874592
0.0007648736 -0.0006434204 -0.0003078416 1.7136459e-05 -0.00032915827 0.00012703873 0.0007378219 -0.00039087696
-0.0005553727 -0.00028322887 0.00023873572 -0.00042715456 -0.00039801543 0.0004565878 7.3673415e-05 -0.00010929577
0.0003958072 -6.656374e-05 -0.0006242924 0.00036549548 0.00045679626 -0.00074741896 -2.5371353e-05 0.00041329066
-0.00046168614 0.00025053578 0.00017144596 -0.0007510448 0.00010519959 9.079904e-05 -0.000750355 9.669143e-05
-6.353246e-05 -3.2454267e-05 0.00039839497 -0.00040923158 -0.00082103995 0.0005351006 -0.0004273132 -0.00021130068
-4.123791e-05 0.00035529744 -0.00023908577 0.00039959102 -0.0004386358 0.00010454455 5.3689182e-05 0.00015068434
0.00032808023 0.000121344325 0.00011759649 -0.000304109 -0.00039535054 -0.00014973078 7.3351606e-05 0.00026580645
0.00013508106 -0.00036770452 0.00017022602 0.00028304374 -0.0003112428 0.00043918556 -0.00051585946 -0.00045578455
-0.00039439753 -4.1375108e-05 0.00049259834 0.0007286141 0.00029506543 0.00022889097 0.00038564636 0.00026781028
-0.000333445 0.00049368467 0.0004092103 -0.0005487066 -0.00020732843 0.00022477024 0.00029243084 -0.0005366198
-0.0001477866 0.0005334833 -8.5055995e-05 -0.00042088787 -0.00044713312 -0.0004259271 -0.0005667285 0.00013572125
-0.00036993957 -0.0007535922 -6.399871e-05 -0.0005118536 2.9715442e-05 -0.00061046315 0.00039906517 -0.0003755536
0.00047319257 0.00028791532 0.00012471505 0.0005015158 0.0002513803 -0.0007371098 2.5383113e-05 0.00010831628
-0.00019389413 -0.0006382026 -0.00062339805 0.00030752542 0.00021132093 0.00041991106 -0.0006726581 -0.00042499107
-0.00026970677 -0.0007599431 6.079741e-05 -0.00034918357 0.00029400218 0.00021547129 -0.00039725483 -0.0002826543
0.00056879624 0.000118813696 -0.00043759163 -1.6340181e-06 0.0002842778 -0.0005160494 0.00080890005 -0.00012905171
-0.0007062563 0.0005644505 -0.00037390806 -0.00094557524 0.00015944809 -2.3194794e-05 -0.00090680073 0.00030051012
5.4862994e-06 -0.0009474711 0.00036522117 0.0005538131 -0.000202494 -0.00017651776 0.00023682156 -0.00058342936
-0.00011856385 0.00051621045 -0.0013271199 -0.0010679056 0.0003347725 -0.0009198955 -0.00088227633 0.00036568104
-0.00035084458 -0.00078117487 0.00013213218 -0.0013774103 -0.0008725859 3.3401953e-05 -0.0008749908 -0.0010136778
-0.00029888924 -0.001428397 -0.00013193306 0.0003992261 -0.0005872211 -0.0008553911 -2.1127991e-05 -0.001332612
-0.0011934603 0.00041298824 -0.0006089738 -0.0010464403 0.0005137875 0.00025841303 0.00023842811 -0.00050167163
-0.00017766579 -0.00017150589 -0.000337851 0.00038704465 0.000203042 0.00021348218 -0.0003848261 0.0005233333
0.00023266295 -0.000119881435 0.00059373624 4.4911452e-05 0.0005264781 -1.2677241e-06 -0.0004789753 0.00037862873
0.0004368416 0.00020537246 -0.00022021656 0.00072182174 -0.00066635525 0.0002579028 0.00024234065 -0.00041676743
-0.0002258093 7.278332e-06 -5.1225284e-06 -0.00022486599 1.635232e-05 0.000633254 0.0005155287 -0.0005970177
-1.799523e-05 -0.00020631202 -0.00010438835 0.0004149504 -0.00041711575 -0.00012393903 0.00021891293 0.00024886208
0.00031852524 0.0004294114 -0.00043155462 -0.0005815454 0.0006932866 -0.00011799755 -0.00010131718 0.0004706411
-0.00012858282 -0.00012325445 0.0005088776 -0.00051678316 -0.00012578774 -0.0008181175 -0.000584284 -0.0004273712
-0.000546286 -0.00042982335 0.00013172335 -0.00010653296 -0.000110253866 -2.6081623e-05 -0.00076731667 -0.00011497295

arith.constant5 f4 [128]
00000000: 5fd3 94bc 5040 3bbd 555d c93d 8ad7 26bd
00000010: 164f 46bd 0eae 94bc 6204 0bbc 555e d33c
00000020: cd89 8b3d 29fe 143d 00f4 18bd 3168 fdbb
00000030: 9a4f d63d 6252 64bc 01ed 153d d814 19bc
00000040: c697 abbb a20e eabc 46d1 e6bc dd74 55bc
00000050: a1c4 14bd d26a 98bc 6dfd 893c 9b67 16bd
00000060: 526b febc f325 313d fd3a 11bd 6d17 1b3e
00000070: 6cf1 e2bc 5631 23bd 5cca 48bc a368 88bc
00000080: 03bd 74bc 8a4c 22bd 24e0 b5bc 356d 83bc
00000090: 0012 83bd fc02 813d 3d1b 60bc 8b8d 3abd
000000a0: c41d eabb 1013 52bd 639e 38bd fba5 0dbd
000000b0: d197 26bd 1d93 37bd dd82 c23d a8ef 4dbd
000000c0: a891 01bd 331a 08bd 7705 09be 991a d23d
000000d0: 2977 963d 13fc 89bb b9fc 4abc 0582 03bd
000000e0: 73fc 75bd 4cbc fabc 8a04 f3bc e222 05bc
000000f0: dc6f 9cbc dccb e33d 0a73 6c3d e3a0 373c
00000100: b01f 02bd f512 a3bc 0e1e 2dbd 7ce2 9d3c
00000110: ea72 ed3c 7951 6bbd 1aab 87bd fdda 01bc
00000120: 0eff 6fbd e419 e53d 0c48 f9bc 96f9 893d
00000130: 4c4e f0bd a755 17bd ac63 8ebd 28aa 3bbc
00000140: 651a 41bd f356 74bd 594a a4bc 6b47 42bd
00000150: 3a8b f2bd 1b55 cdbd d173 14bb 2519 74bc
00000160: 1782 45bc 8fe4 8bbc 1d38 b93d d6c3 553d
00000170: 57b5 80bc 8295 7dbd 4474 4bbd 773e 753d
00000180: c653 25bc 4b5c 7c3c 5c37 533d e801 1ebd
00000190: bebc 07bd 6291 afbc 0ef3 753e 69fa 01bd
000001a0: 0031 253e 4252 d13d 5df3 183e 344e f63b
000001b0: 44a6 45bc c18e b53d 3b63 b8bd 08c0 753e
000001c0: 7a32 b33c 4da3 203d 0029 79bd ad9a 9ebd
000001d0: ca90 203e 5875 f73d d318 6cbc 56c6 05bd
000001e0: c570 543c 3be8 c8bc 5f11 e6bc 917c 07bc
000001f0: 94b0 e6bc ac09 e8bc b298 033c df7c ebbb
-0.018167196 -0.04571563 0.09832255 -0.040732898 -0.048415266 -0.018149402 -0.008484932 0.025801817
0.06813393 0.0363752 -0.03734207 -0.007733368 0.104644015 -0.013935657 0.036602978 -0.009343348
-0.0052365987 -0.02857143 -0.028175961 -0.013028351 -0.036320332 -0.018605623 0.016844476 -0.0367199
-0.031057034 0.04324908 -0.035456646 0.15145655 -0.02770301 -0.039841972 -0.0122552775 -0.016651457
-0.014937642 -0.039623775 -0.022201605 -0.016043285 -0.063999176 0.06299397 -0.013678369 -0.045545142
-0.0071446616 -0.05128771 -0.045072924 -0.03458212 -0.040672127 -0.044818033 0.094976164 -0.050277382
-0.03163305 -0.03322811 -0.13380991 0.10258979 0.07346947 -0.004210958 -0.012389355 -0.03210642
-0.060055207 -0.030607365 -0.02966525 -0.0081259925 -0.019096307 0.111228675 0.057726897 0.011207792
-0.0317685 -0.0199065 -0.04226499 0.019273035 0.02898546 -0.057450745 -0.06624432 -0.007925746
-0.05859285 0.11186579 -0.030429862 0.06737058 -0.11733684 -0.03694692 -0.06952605 -0.011454143
-0.047144312 -0.059653234 -0.020054983 -0.04743139 -0.118429616 -0.10025998 -0.002265204 -0.014898573
-0.012054942 -0.017076759 0.09043906 0.052188717 -0.01571147 -0.06191016 -0.049671426 0.059874024
-0.010090774 0.015402864 0.051566467 -0.038576037 -0.033138983 -0.021431629 0.240185 -0.03173295
0.16131973 0.102207676 0.14936586 0.0075166468 -0.012063567 0.08865119 -0.09003302 0.23999035
0.021874655 0.039218236 -0.060830116 -0.07744346 0.15680233 0.120829284 -0.014410215 -0.03265985
0.0129663395 -0.024524799 -0.028084455 -0.008269445 -0.02816037 -0.028324924 0.008032011 -0.0071865167

arith.constant6 f4 [128]
00000000: 3c45 88bd 741f 4cbc ecd0 99bc 2429 05bd
00000010: 5378 6dbc cc0d 543e 2340 203b 7130 d7bc
00000020: 9332 9bbb acae 94bd 1875 86bd 2552 c2bc
00000030: 895f 6cbc d953 1ebd 5ed7 6ebd 4e3f 06bd
00000040: f71b f13d 37fd 0a3d 5d29 25bd c678 993d
00000050: 4cd4 b4bc 257e 78bc 5875 6fbd 6db7 eabd
00000060: 8806 8dbc 4885 0e3d a6e8 83bd bf53 103d
00000070: 425b cdbc 04f4 51bd 69ec 6cbd 3c14 813a
00000080: 4545 3bbd f7cf 913d e3a2 b73d 10ca 15bc
00000090: 957b b1bc 9f0f b0bc e963 09bd c4e8 e0bb
000000a0: dba1 103d 2cb2 d1bb 89ca 73bd 4b68 a3bc
000000b0: 6c1b 1ebc 5c0c 8dbd f76d e93c 013c 95bd
000000c0: 6336 3dbc dc3c 46bd 0cbd 32bd 9523 8bbc
000000d0: cc68 c93d fa61 9bbd 3a42 97bc 3f35 ba3c
000000e0: aa5f 083c 6ade 013e 4461 4aba ec4f 75bd
000000f0: 0575 4fbc 1ec0 00bd 005d 04bd 0da7 933d
00000100: 52d8 37bc 0226 853d 1bd3 993d 0633 03be
00000110: 2739 64bc 5953 89bd 3431 523d 8de7 c7bc
00000120: f0c1 24bc df68 07bd c1a7 efbc 87aa 20bd
00000130: 302b 96bc c6b3 0fbd 337e 51bd 771c 8abc
00000140: 2f47 b4bc 5e96 96bc d213 8cbd 5bcd a6bd
00000150: 0223 b7bb 2390 0bbd 1457 f9bc 9952 2abd
00000160: ef25 193c 59d5 14bc 67a5 fabd 1d32 eaba
00000170: c674 46bc 167b c83d 3b56 aebb e1c3 a139
00000180: 188a 82bd a001 a93d 7a34 a33d 1cd3 a6bd
00000190: 4f42 923d a36d b7bd 8077 9e3d 2379 15bc
000001a0: d253 213e 2152 a53c 3bad cd3d 4716 bcbc
000001b0: 57a1 e53b 00d3 f13c d1fc 0bbd d250 073c
000001c0: 8e8d 633b 0476 babd 3a7b 953d cc87 61bd
000001d0: 7ee7 c1bc 285f 593d 04e5 d2bc b267 9ebd
000001e0: 4eb4 ffbc f282 2cbd 1c90 1abc 8557 013e
000001f0: a415 50bc 658b 013e 766f 6bbc 600a 42bc
-0.066538304 -0.012458671 -0.01877638 -0.032509938 -0.01449402 0.20708388 0.002445229 -0.026268216
-0.0047362535 -0.072598785 -0.065653026 -0.02372081 -0.014427074 -0.038654182 -0.05831086 -0.032775216
0.11772912 0.03393289 -0.04032265 0.07493739 -0.022073887 -0.015166794 -0.058461517 -0.11460767
-0.017215028 0.034795076 -0.064408585 0.035236116 -0.02506793 -0.051258102 -0.057842646 0.0009847949
-0.045720357 0.07119744 0.08966615 -0.009142414 -0.021665374 -0.021491824 -0.033542547 -0.0068636853
0.035310607 -0.0063994136 -0.059519324 -0.019947192 -0.009650093 -0.06887123 0.028494818 -0.072868355
-0.011548611 -0.048397884 -0.04363732 -0.01698474 0.098344415 -0.07587047 -0.018464196 0.022730468
0.008323589 0.126825 -0.0007720182 -0.059890673 -0.012662177 -0.031433217 -0.032315254 0.07209597
-0.011221008 0.0650139 0.07510968 -0.12812433 -0.013929642 -0.067053504 0.051316455 -0.024402404
-0.010056004 -0.033058997 -0.029254796 -0.039225128 -0.01833114 -0.035083555 -0.051145744 -0.016859276
-0.0220066 -0.018382248 -0.06839718 -0.08144637 -0.00558889 -0.034073006 -0.03043703 -0.041582678
0.009347423 -0.009084069 -0.12238579 -0.0017867718 -0.012112802 0.09789102 -0.005320338 0.00030854254
-0.063739955 0.08252263 0.079689935 -0.08145735 0.071415536 -0.089564584 0.077376366 -0.0091231195
0.15754631 0.020180764 0.10042807 -0.022959841 0.0070077586 0.029519558 -0.03417665 0.008259015
0.0034721824 -0.09104541 0.07298894 -0.055061147 -0.023669954 0.053069264 -0.025743969 -0.07734622
-0.031213906 -0.042117067 -0.009433772 0.12631042 -0.012700472 0.12650831 -0.014369836 -0.011843294

arith.constant7 f4 [128]
00000000: bc3d 84bc 7884 47bd 80a1 963c 8f5c 5abd
00000010: 1b59 4ebd aee9 c5bc 5d73 1e3d 13a5 48bd
00000020: c32e 3dbd 2682 9abd 310c d03c 87b3 343e
00000030: a222 153e 622e 06be a4bf 4bbd f239 83bd
00000040: 1664 dabd 6328 00bd 4d68 8e3d 0c54 693d
00000050: a330 293e 9b45 5dbc f27c 51bd d0d5 a2bd
00000060: 906c 40bd 5e03 a43d 763d 413c d060 1bbe
00000070: 7873 363b 9825 153e 4970 20bd f811 40bc
00000080: b49f bebd 171c 8cbd dca1 dabd 803b 213c
00000090: 330f c2bc d72b 9fbc ca26 94bd 9898 2ebd
000000a0: aa4f 5d3e 0265 c53d 12e5 c2bd c3ec 90bd
000000b0: 6892 a9bc 0c9a 583e 8321 823d 3d5b 95bd
000000c0: e0bf 08be 9c65 b4ba 459a 8cbd aa9e 32bd
000000d0: 0b98 e6bc f536 86bd a4de 893c 80c9 143d
000000e0: 66c0 0a3d 94f7 b63d 13c1 55bc a6ad 39bd
000000f0: 4115 f5bd 86be 9fbc c259 e2bc 0208 41bd
00000100: e4ff 2dbd bb0c 423d 1f40 43be 0363 e73b
00000110: 16d1 313d 659d 1b3d 4889 4a3b 1b99 57bd
00000120: 74d9 debc 0018 063d 2709 1e3e 3c26 ccbc
00000130: 82d0 123c 2c48 84bd 4ca1 30bd 8a8b 9cbc
00000140: 246a 1b3d 45d7 85bc 69bf 793e d51c 1bbd
00000150: 7fd4 20bd edfd b93d c981 a1bd 8336 fbbc
00000160: 0e89 3ebd e939 013c 6f38 b2bd f8a3 5abd
00000170: 95bc 6abd 964e e4bc 27cc 1fbd cf65 ddbc
00000180: 8c87 7f3c 11b6 563d 700b 713d 99ad 9bbc
00000190: 783c c7bc aa62 833d 787a 9337 dbef b5bd
000001a0: f2ce cbbb 02be aa3d 4723 23bd f768 26bd
000001b0: b3a7 babd 16f7 33bc d535 a2bd 7e59 b0bd
000001c0: 71c3 fbb9 6288 83bd e0b6 90bd 8d74 cf3d
000001d0: cc9c 98bc 153c 87bb 3381 ca3c 3205 c4bc
000001e0: 99e1 113d 89d7 78bd b54d 4c3d 0c55 88bd
000001f0: 950d 813d 0950 2b3e 6f67 2d3e 6838 3bbd
-0.016142718 -0.048710316 0.018387556 -0.053310927 -0.050377946 -0.024159279 0.038684238 -0.048985552
-0.046187174 -0.07544355 0.025396438 0.17646609 0.14563993 -0.13103631 -0.04974331 -0.064075366
-0.10663621 -0.031288516 0.069534875 0.05696492 0.1652246 -0.013505365 -0.051144548 -0.07950938
-0.046978533 0.08008455 0.011794439 -0.1517365 0.002783982 0.14565122 -0.039169583 -0.011723034
-0.09307805 -0.06841295 -0.106754035 0.009840846 -0.023688888 -0.019430084 -0.07233961 -0.042625993
0.2161242 0.09638406 -0.09516348 -0.07076409 -0.020699695 0.21152514 0.06354048 -0.07292793
-0.13354445 -0.0013763192 -0.06865362 -0.043608345 -0.028148672 -0.06553451 0.016829796 0.036324978
0.03387489 0.089339405 -0.013046521 -0.04533162 -0.119669445 -0.019500028 -0.02763069 -0.047126777
-0.042480364 0.047375422 -0.19067429 0.0070613637 0.04341229 0.0379919 0.003090458 -0.052636247
-0.0272033 0.032737732 0.15433179 -0.024920575 0.008960845 -0.06459078 -0.043122575 -0.019109506
0.03794302 -0.016338 0.24389423 -0.037869293 -0.039265152 0.090816356 -0.07886083 -0.030665642
-0.046517424 0.007887342 -0.0870217 -0.05337903 -0.057308752 -0.027869504 -0.039013054 -0.027026085
0.015596282 0.052419726 0.0588488 -0.019003676 -0.024320826 0.06415303 1.7580795e-05 -0.088836394
-0.006219738 0.08337022 -0.039828565 -0.040627446 -0.09114017 -0.010984203 -0.07920424 -0.08610819
-0.00048020066 -0.06422497 -0.07066131 0.10129652 -0.018629454 -0.0041270354 0.02471981 -0.023928259
0.035615537 -0.060752425 0.049878795 -0.066568464 0.06301419 0.1672975 0.16933988 -0.04570809

arith.constant8 f4 [64]
00000000: 69a1 eebc 4d95 87bc 1db4 6fbc 52b4 ebbc
00000010: 19c3 093d 57c1 bd3c 846a e93d 6c73 b63d
00000020: 2fb6 11bd d963 0bbd 6f86 cdbc b1f5 8ebc
00000030: 5415 15bb c671 24be e46e 20bc 096c 3dbd
00000040: 1c28 193d 91eb e4bb f147 843d 18df 68be
00000050: 7ca2 05be 78e8 1abd a68c 40bd 884c 63bd
00000060: b837 54bd 1fa3 d0bc 06d3 0ebd 8e87 0bbd
00000070: 702c 84bb b56c 843b 6107 0cbc fb6e 82bd
00000080: 4c38 92bc 322e 1cbd 9299 28bd e5fb d9bd
00000090: ba8f b23c 582d 85bd 8fee d3bc cd4e a73c
000000a0: 79e6 f9bc 0735 fc3b c61d 9ebc e18b b63c
000000b0: 61e7 09bd 9e37 58bd ae55 15bd dbe0 ddbd
000000c0: 1673 22bd fb90 493d ca56 e2bc 9659 d4bd
000000d0: f0dd f3bc 4335 2abd 63c7 bd3b c6bc 6cbd
000000e0: 204f 22be b4d9 8dbb 2f9a 2ebc fb3e 1dbc
000000f0: 7757 9c3d f752 c5bc 71e7 ea3d 71f4 223d
-0.0291297 -0.016550684 -0.014630345 -0.028772507 0.033633325 0.02316348 0.11397269 0.08908734
-0.035574134 -0.03403077 -0.025088517 -0.01745114 -0.0022748308 -0.16059026 -0.009792063 -0.04624561
0.037391767 -0.0069860895 0.06459034 -0.22741354 -0.13050264 -0.037819356 -0.047009133 -0.055492908
-0.05181095 -0.025468407 -0.034869216 -0.034064822 -0.0040336177 0.004041279 -0.008546681 -0.06368824
-0.01784911 -0.038129993 -0.04116208 -0.10643748 0.02179705 -0.06502789 -0.02587059 0.020423317
-0.030505406 0.007696751 -0.019301306 0.022283496 -0.033667926 -0.052787416 -0.036458664 -0.108339034
-0.039660536 0.04921053 -0.027629275 -0.1036865 -0.029768914 -0.0415547 0.005791591 -0.057797216
-0.15850496 -0.0043289308 -0.010656877 -0.009597535 0.0763387 -0.024087412 0.11469925 0.0397839

arith.constant9 f4 [64]
00000000: 64bc 173d 7465 15be d9fa aa3d 342d b8bc
00000010: 579f 25be eefe 06bd ddb7 93bd cece e4bd
00000020: 1c32 303c dd20 1b3d 103c 693d 5b61 6e3c
00000030: b004 a33c 759a a43d e478 08bd 326b 97bd
00000040: 318b 17bc fff5 fcbc 790c 7ebd c4fe 9cbd
00000050: de39 05bc 1215 6fbd 3b8e fd3a 68e1 32bd
00000060: fb7b c9bc 45fb 1cbd 6bfa 3e3c 97e8 f2bc
00000070: a9fb 163c b603 b0bd a667 363d df49 c6b9
00000080: 8dc9 d93c 8c6f debc def3 99bd aa39 19bd
00000090: 4553 bebb aaaa 7bbc a304 b2bd 267e 00bd
000000a0: f8c1 70bd 3197 00be a195 863c ed96 dc3a
000000b0: 7b06 993c 47c5 ad3c acbf 84bc 58c6 3fbd
000000c0: a91a 24be 10f1 d7bc 1353 553d 1d8b c3bd
000000d0: 6745 b7bd 66f6 773c 67cc b4bb 0b84 51bd
000000e0: 8776 67bc 4607 123d c9c2 783d 7f8b 303d
000000f0: 744d 003d 9c5f 87bd aef4 16bd 1ad1 8c3d
0.037044898 -0.14589483 0.08348627 -0.022482492 -0.16174065 -0.032957964 -0.072128035 -0.11172257
0.0107541345 0.037873138 0.056942046 0.014549579 0.019899696 0.08037273 -0.033318415 -0.07393493
-0.009249494 -0.030879019 -0.062023614 -0.0766578 -0.008131472 -0.058369704 0.0019344756 -0.043671995
-0.024595251 -0.038325567 0.011656384 -0.029651923 0.009215274 -0.08594458 0.04453244 -0.0003782054
0.026585365 -0.0271528 -0.07517217 -0.03740851 -0.0058082663 -0.015360514 -0.08692291 -0.031370305
-0.058778733 -0.12557675 0.01642877 0.0016829647 0.018679848 0.021212233 -0.016204678 -0.046820015
-0.16025795 -0.026360065 0.05208118 -0.09548018 -0.08948784 0.01513443 -0.0055175307 -0.051151317
-0.01412738 0.035651468 0.060732637 0.043101784 0.031323865 -0.06610033 -0.03685444 0.068758205

arith.constant10 f4 [32]
00000000: 10e7 073d 30b0 9dbc bc2b 67bd f0ab 75bc
00000010: 2b5e 743d 6470 4bbd 6ed3 203d 05d3 0abe
00000020: f7a9 373b 09d6 7b3d 6f29 3c3c 1049 7a3d
00000030: d8e0 d83c 28c4 833d a7fe 0a3d 5275 0a3d
00000040: c308 1bbd 9f38 16be f8d2 373d 08b4 423d
00000050: 193a 31bd c7a2 983d a16a 853d c88c 06bc
00000060: fab6 193b e27b 6f3d 7cc3 8e3d 527c 0abc
00000070: 00de 3b3d c161 34bc 2990 573c 5aed 893c
0.033179343 -0.019249052 -0.056438193 -0.014994606 0.059660118 -0.04966773 0.039264135 -0.1355706
0.002802489 0.061483417 0.011484488 0.061104834 0.026474401 0.06433898 0.03393426 0.03380329
-0.037850153 -0.14670037 0.04487893 0.047534972 -0.043268297 0.07452922 0.065144785 -0.008212276
0.002345501 0.058467753 0.069708794 -0.008452492 0.045866013 -0.0110096345 0.013156929 0.01683681

tfl.pseudo_qconst i1 [128, 3, 3, 128]
00000000: 1cbd e3ed e702 eee7 c4af 2cb1 f40e 13e3
00000010: fbe1 2221 d1c6 00a4 f229 deda fa07 0cf5
00000020: 1302 f804 edda be2e fad2 1409 0e11 00ec
00000030: 2efc d91f b31a 21d9 b4ed 0ef4 e1d8 1f0d
00000040: 06ea 0fcc c9d5 b711 1739 27c8 c73b 34e4
00000050: 03e6 fefe 13d8 ccce f730 d5c9 d1d5 a625
00000060: ccff fbeb a6f7 11f4 0e9c de23 b6d7 eac3
00000070: 05d6 ee08 099f f11b 32fe c2ce c70f f215
00000080: ebff c52c c5de 28a9 c9d1 e300 34ca b9da
00000090: dbb6 14c0 00bf 1910 cd73 2ba7 eeb9 0d09
000000a0: 15e4 f3db 02c9 bd10 c524 dad6 21e0 e0d0
000000b0: 0f30 1230 c936 25b7 f6ed d5d2 18ea 09ec
000000c0: a5e3 afc3 fcfe 06c5 3aeb d6e8 9e03 f1bd
000000d0: 33ca fceb ddf4 bf1a eadf 2815 0c31 f92f
000000e0: 20b9 ad02 ffd3 b5c7 cbe7 fcea 0de1 3cff
000000f0: 9817 dfc7 c9b8 0bcd 00f4 87ec bf18 ad16
28 -67 -29 -19 -25 2 -18 -25
-60 -81 44 -79 -12 14 19 -29
-5 -31 34 33 -47 -58 0 -92
-14 41 -34 -38 -6 7 12 -11
19 2 -8 4 -19 -38 -66 46
-6 -46 20 9 14 17 0 -20
46 -4 -39 31 -77 26 33 -39
-76 -19 14 -12 -31 -40 31 13
6 -22 15 -52 -55 -43 -73 17
23 57 39 -56 -57 59 52 -28
3 -26 -2 -2 19 -40 -52 -50
-9 48 -43 -55 -47 -43 -90 37
-52 -1 -5 -21 -90 -9 17 -12
14 -100 -34 35 -74 -41 -22 -61
5 -42 -18 8 9 -97 -15 27
50 -2 -62 -50 -57 15 -14 21
-21 -1 -59 44 -59 -34 40 -87
-55 -47 -29 0 52 -54 -71 -38
-37 -74 20 -64 0 -65 25 16
-51 115 43 -89 -18 -71 13 9
21 -28 -13 -37 2 -55 -67 16
-59 36 -38 -42 33 -32 -32 -48
15 48 18 48 -55 54 37 -73
-10 -19 -43 -46 24 -22 9 -20
-91 -29 -81 -61 -4 -2 6 -59
58 -21 -42 -24 -98 3 -15 -67
51 -54 -4 -21 -35 -12 -65 26
-22 -33 40 21 12 49 -7 47
32 -71 -83 2 -1 -45 -75 -57
-53 -25 -4 -22 13 -31 60 -1
-104 23 -33 -57 -55 -72 11 -51
0 -12 -121 -20 -65 24 -83 22

tfl.pseudo_qconst1 i1 [128, 3, 3, 128]
00000000: e910 13ef 1ce2 f8fd 12e3 fb1c c530 14ff
00000010: efdc c5ea e2c4 09af c8e2 a208 fad5 eb12
00000020: 03d1 ddb8 fdfb 2212 ffd5 f516 de0f 20a9
00000030: ecea 09e4 0cdc 05fa dbd9 18a5 b0e0 fab3
00000040: fa0d d20f dffa d902 e525 fb29 d9c1 1bf6
00000050: 1917 d4c7 1dee 20f4 2cb1 0ead fce7 cf0b
00000060: daca 1fec fadf 02f3 0ad8 0c08 f0cd bffa
00000070: 0426 21b3 10e6 e917 fdb3 e722 07de eaca
00000080: fb0b 160b ec05 f3ce d50f 08e8 f9f6 1d26
00000090: 0ce4 d9e4 f3b8 1626 eddd e4d0 1302 eb1f
000000a0: da9b 0001 f829 e0f0 f9ae ecdd e816 efdc
000000b0: 00d2 1efa 011e 1bd0 c3c0 dba7 cf10 a3e9
000000c0: e6ea d8e9 cd05 0de6 02f7 28ed f738 25ff
000000d0: dafd f302 1bed 0ed3 1bb4 efa7 e3f5 a6e2
000000e0: e0da f10b 17e8 0dfc f8f2 1408 20b3 0325
000000f0: 0be8 e7de f4cf 1b1e eb09 1000 e1b5 1ac2
-23 16 19 -17 28 -30 -8 -3
18 -29 -5 28 -59 48 20 -1
-17 -36 -59 -22 -30 -60 9 -81
-56 -30 -94 8 -6 -43 -21 18
3 -47 -35 -72 -3 -5 34 18
-1 -43 -11 22 -34 15 32 -87
-20 -22 9 -28 12 -36 5 -6
-37 -39 24 -91 -80 -32 -6 -77
-6 13 -46 15 -33 -6 -39 2
-27 37 -5 41 -39 -63 27 -10
25 23 -44 -57 29 -18 32 -12
44 -79 14 -83 -4 -25 -49 11
-38 -54 31 -20 -6 -33 2 -13
10 -40 12 8 -16 -51 -65 -6
4 38 33 -77 16 -26 -23 23
-3 -77 -25 34 7 -34 -22 -54
-5 11 22 11 -20 5 -13 -50
-43 15 8 -24 -7 -10 29 38
12 -28 -39 -28 -13 -72 22 38
-19 -35 -28 -48 19 2 -21 31
-38 -101 0 1 -8 41 -32 -16
-7 -82 -20 -35 -24 22 -17 -36
0 -46 30 -6 1 30 27 -48
-61 -64 -37 -89 -49 16 -93 -23
-26 -22 -40 -23 -51 5 13 -26
2 -9 40 -19 -9 56 37 -1
-38 -3 -13 2 27 -19 14 -45
27 -76 -17 -89 -29 -11 -90 -30
-32 -38 -15 11 23 -24 13 -4
-8 -14 20 8 32 -77 3 37
11 -24 -25 -34 -12 -49 27 30
-21 9 16 0 -31 -75 26 -62

tfl.pseudo_qconst2 i1 [128, 3, 3, 64]
00000000: 26e1 f704 212e 43fc 071e 1e20 06fa f0e1
00000010: 3304 03dd 15f7 fc3b 0bee f30f e819 07f3
00000020: d0e4 df2d c1f7 41e3 f504 152c 070f 0bb0
00000030: e250 fdf4 100c fb20 dfd5 e4fc 03f5 221d
00000040: 25e0 4b27 2549 4201 e903 1a0b 2cdc 0525
00000050: 32fb 08c3 f6fb 2624 12f1 e916 06fc e337
00000060: e2f6 1112 bee2 12ec f617 0cff fd27 2fd0
00000070: 0927 dcce fe11 2ff6 f4f5 03ea 4b02 0ff5
00000080: 08ce 2911 4971 541b 040c e549 0ccf 492f
00000090: 6901 1bb1 d919 e7a9 e1d7 0a16 f113 0c10
000000a0: 0dec 560b e8f7 c811 0f1e da00 fcf1 41ed
000000b0: f767 bfd7 1b16 6212 ddda 1fb5 66fb 021b
000000c0: f2f1 c3d6 1902 4500 3309 f717 11dc 19d3
000000d0: 3dff fbdb 2d1b f54a 3dc6 df1f ebe6 20e6
000000e0: e504 de0a e301 1ade 0d33 1002 ec28 26b9
000000f0: f23e 1a06 37e7 222f c3ae e2ff 2812 2508
38 -31 -9 4 33 46 67 -4
7 30 30 32 6 -6 -16 -31
51 4 3 -35 21 -9 -4 59
11 -18 -13 15 -24 25 7 -13
-48 -28 -33 45 -63 -9 65 -29
-11 4 21 44 7 15 11 -80
-30 80 -3 -12 16 12 -5 32
-33 -43 -28 -4 3 -11 34 29
37 -32 75 39 37 73 66 1
-23 3 26 11 44 -36 5 37
50 -5 8 -61 -10 -5 38 36
18 -15 -23 22 6 -4 -29 55
-30 -10 17 18 -66 -30 18 -20
-10 23 12 -1 -3 39 47 -48
9 39 -36 -50 -2 17 47 -10
-12 -11 3 -22 75 2 15 -11
8 -50 41 17 73 113 84 27
4 12 -27 73 12 -49 73 47
105 1 27 -79 -39 25 -25 -87
-31 -41 10 22 -15 19 12 16
13 -20 86 11 -24 -9 -56 17
15 30 -38 0 -4 -15 65 -19
-9 103 -65 -41 27 22 98 18
-35 -38 31 -75 102 -5 2 27
-14 -15 -61 -42 25 2 69 0
51 9 -9 23 17 -36 25 -45
61 -1 -5 -37 45 27 -11 74
61 -58 -33 31 -21 -26 32 -26
-27 4 -34 10 -29 1 26 -34
13 51 16 2 -20 40 38 -71
-14 62 26 6 55 -25 34 47
-61 -82 -30 -1 40 18 37 8

tfl.pseudo_qconst3 i1 [64, 3, 3, 64]
00000000: c8fa dd04 11c6 c80a 12d9 d23d 01db 3d3a
00000010: a50d bedc 1d33 cfb4 d731 d6e1 f7e2 f9ee
00000020: 1bf2 2c1a 170b 02c5 b8ee 3ad7 22d7 fcc7
00000030: f630 04f2 0305 1a03 cabf 0efe e41e de05
00000040: 0293 d7dc f4e8 bfd2 e950 3719 0cf1 08ba
00000050: 0e28 bb17 2642 26c3 f9fe eef8 31de 16b5
00000060: f9f5 2e05 b6f8 d2dd f9cd 4411 f10f 26ea
00000070: de00 e9fd f0be afc1 e203 090a 1bae ead4
00000080: c2ae 2306 31c7 c5f2 8b25 3cef e81d bc2c
00000090: b1e3 ec9f b209 bcd8 cc23 d1f6 1a9a 0fef
000000a0: d32c ff02 c42b 26f6 e2ce b922 b3d3 271b
000000b0: f83d 1ef3 b6f7 ddde 372f e9ac 0c25 12cb
000000c0: 0a09 f024 f517 f6e1 2129 1ef7 1fc9 be51
000000d0: 1da8 290d b040 dfd0 12d5 d5c6 5c01 f409
000000e0: b017 c60b f617 cdb5 ef19 dc09 bbe9 30cb
000000f0: cd0f 0f01 1aca 2509 f21c 240e d201 b0cf
-56 -6 -35 4 17 -58 -56 10
18 -39 -46 61 1 -37 61 58
-91 13 -66 -36 29 51 -49 -76
-41 49 -42 -31 -9 -30 -7 -18
27 -14 44 26 23 11 2 -59
-72 -18 58 -41 34 -41 -4 -57
-10 48 4 -14 3 5 26 3
-54 -65 14 -2 -28 30 -34 5
2 -109 -41 -36 -12 -24 -65 -46
-23 80 55 25 12 -15 8 -70
14 40 -69 23 38 66 38 -61
-7 -2 -18 -8 49 -34 22 -75
-7 -11 46 5 -74 -8 -46 -35
-7 -51 68 17 -15 15 38 -22
-34 0 -23 -3 -16 -66 -81 -63
-30 3 9 10 27 -82 -22 -44
-62 -82 35 6 49 -57 -59 -14
-117 37 60 -17 -24 29 -68 44
-79 -29 -20 -97 -78 9 -68 -40
-52 35 -47 -10 26 -102 15 -17
-45 44 -1 2 -60 43 38 -10
-30 -50 -71 34 -77 -45 39 27
-8 61 30 -13 -74 -9 -35 -34
55 47 -23 -84 12 37 18 -53
10 9 -16 36 -11 23 -10 -31
33 41 30 -9 31 -55 -66 81
29 -88 41 13 -80 64 -33 -48
18 -43 -43 -58 92 1 -12 9
-80 23 -58 11 -10 23 -51 -75
-17 25 -36 9 -69 -23 48 -53
-51 15 15 1 26 -54 37 9
-14 28 36 14 -46 1 -80 -49

tfl.pseudo_qconst4 i1 [64, 3, 3, 32]
00000000: e91d db02 50cb b5f2 11fc 2716 fbf1 de2e
00000010: fdba 1eea 15d2 25fb f7ff 34de ffd0 f7fb
00000020: 03ee 20e5 06fb f2dd a9d9 29de f8db 1803
00000030: 0fb3 ee22 c896 44de d827 fae5 0d0d 45bc
00000040: 0ee4 d306 1ec7 c2b4 dba9 072d 07a3 0fce
00000050: 10ad fc19 c28e 3ecf 09f4 050d bfc6 17db
00000060: 41e4 14f7 1504 8fdd f4cd f7f7 d817 81fe
00000070: dcfc 1301 e9ec 11ca bd28 132a 0c1b 649d
00000080: 1c01 1807 ebad fbc1 e7f9 41ff fbe9 f404
00000090: cdf3 fe28 27cd 26e0 e0f4 0816 f8ed 23f5
000000a0: 1efb 12dd 38a7 e1b8 f716 fce7 efef 36f1
000000b0: 06c5 c916 0de4 fdfc d02f 4a26 c0ff 3ae3
000000c0: 1c0b f02b 02c7 ca06 0aeb 0310 1d03 bffb
000000d0: f8d4 032a 28e6 39cc dcfc f745 fae8 69a4
000000e0: 2dfe 2608 ebdd e5dc c7d9 3b20 ce0e c613
000000f0: fed7 1331 ffb0 3732 cc02 5045 cf07 3dd8
-23 29 -37 2 80 -53 -75 -14
17 -4 39 22 -5 -15 -34 46
-3 -70 30 -22 21 -46 37 -5
-9 -1 52 -34 -1 -48 -9 -5
3 -18 32 -27 6 -5 -14 -35
-87 -39 41 -34 -8 -37 24 3
15 -77 -18 34 -56 -106 68 -34
-40 39 -6 -27 13 13 69 -68
14 -28 -45 6 30 -57 -62 -76
-37 -87 7 45 7 -93 15 -50
16 -83 -4 25 -62 -114 62 -49
9 -12 5 13 -65 -58 23 -37
65 -28 20 -9 21 4 -113 -35
-12 -51 -9 -9 -40 23 -127 -2
-36 -4 19 1 -23 -20 17 -54
-67 40 19 42 12 27 100 -99
28 1 24 7 -21 -83 -5 -63
-25 -7 65 -1 -5 -23 -12 4
-51 -13 -2 40 39 -51 38 -32
-32 -12 8 22 -8 -19 35 -11
30 -5 18 -35 56 -89 -31 -72
-9 22 -4 -25 -17 -17 54 -15
6 -59 -55 22 13 -28 -3 -4
-48 47 74 38 -64 -1 58 -29
28 11 -16 43 2 -57 -54 6
10 -21 3 16 29 3 -65 -5
-8 -44 3 42 40 -26 57 -52
-36 -4 -9 69 -6 -24 105 -92
45 -2 38 8 -21 -35 -27 -36
-57 -39 59 32 -50 14 -58 19
-2 -41 19 49 -1 -80 55 50
-52 2 80 69 -49 7 61 -40

tfl.pseudo_qconst5 i1 [11, 128] scale=0.009100283 zero_point=0
00000000: 13ec d719 ecef f8df 08d8 fb02 f0ed 1810
00000010: ff06 f900 f414 0707 fe09 0201 d815 e602
00000020: 0ce3 1610 0ceb fbef 10ec 14ed 0701 f7f8
00000030: fefb f80c 03fa f203 06ff 2de4 f806 f8df
00000040: c92c 0310 11f4 fbf9 1606 f603 c8e1 fefa
00000050: 08fd e4fc 11f5 03fd fde7 0d03 fafa 10ea
00000060: daff 0708 f3f6 f1ed 010a f5e9 07fe 0cff
00000070: e013 0de9 fe10 f00d 0aeb f0de f8e0 12fa
00000080: 061d f7f6 e5d6 fefc eb17 f313 10ef 17ec
00000090: 00f0 0fec f907 0ff6 efee f9ea e2ed fc11
000000a0: 0e0a ddfb f5fc 10fa 14e1 fffd ea0b e7e6
000000b0: f808 0de1 09ce 05de ffed eefd 05fc 09f4
000000c0: 0ce9 d512 f5fe f300 100a ffef fc10 f4fe
000000d0: 0d04 ee09 0608 de09 1314 16e3 eeed e9e2
000000e0: 00f1 ede1 07e2 f5fa ea05 12fb f9e8 10fd
000000f0: eb08 ee10 22e6 f607 0cfc 0e17 fc0c 15fe
0.17290537 -0.18200564 -0.37311158 0.22750707 -0.18200564 -0.15470481 -0.07280226 -0.30030933
0.07280226 -0.3640113 -0.04550141 0.018200565 -0.14560452 -0.17290537 0.21840678 0.14560452
-0.009100283 0.054601695 -0.06370198 0.0 -0.10920339 0.18200564 0.06370198 0.06370198
-0.018200565 0.08190254 0.018200565 0.009100283 -0.3640113 0.19110593 -0.23660734 0.018200565
0.10920339 -0.2639082 0.20020622 0.14560452 0.10920339 -0.19110593 -0.04550141 -0.15470481
0.14560452 -0.18200564 0.18200564 -0.17290537 0.06370198 0.009100283 -0.08190254 -0.07280226
-0.018200565 -0.04550141 -0.07280226 0.10920339 0.027300848 -0.054601695 -0.12740396 0.027300848
0.054601695 -0.009100283 0.40951273 -0.25480792 -0.07280226 0.054601695 -0.07280226 -0.30030933
-0.5005155 0.40041244 0.027300848 0.14560452 0.15470481 -0.10920339 -0.04550141 -0.06370198
0.20020622 0.054601695 -0.09100282 0.027300848 -0.50961584 -0.28210875 -0.018200565 -0.054601695
0.07280226 -0.027300848 -0.25480792 -0.03640113 0.15470481 -0.10010311 0.027300848 -0.027300848
-0.027300848 -0.22750707 0.11830367 0.027300848 -0.054601695 -0.054601695 0.14560452 -0.20020622
-0.34581074 -0.009100283 0.06370198 0.07280226 -0.11830367 -0.09100282 -0.13650423 -0.17290537
0.009100283 0.09100282 -0.10010311 -0.2093065 0.06370198 -0.018200565 0.10920339 -0.009100283
-0.29120904 0.17290537 0.11830367 -0.2093065 -0.018200565 0.14560452 -0.14560452 0.11830367
0.09100282 -0.19110593 -0.14560452 -0.30940962 -0.07280226 -0.29120904 0.16380508 -0.054601695
0.054601695 0.2639082 -0.08190254 -0.09100282 -0.24570763 -0.38221186 -0.018200565 -0.03640113
-0.19110593 0.2093065 -0.11830367 0.17290537 0.14560452 -0.15470481 0.2093065 -0.18200564
0.0 -0.14560452 0.13650423 -0.18200564 -0.06370198 0.06370198 0.13650423 -0.09100282
-0.15470481 -0.16380508 -0.06370198 -0.20020622 -0.27300847 -0.17290537 -0.03640113 0.15470481
0.12740396 0.09100282 -0.31850988 -0.04550141 -0.10010311 -0.03640113 0.14560452 -0.054601695
0.18200564 -0.28210875 -0.009100283 -0.027300848 -0.20020622 0.10010311 -0.22750707 -0.23660734
-0.07280226 0.07280226 0.11830367 -0.28210875 0.08190254 -0.45501414 0.04550141 -0.30940962
-0.009100283 -0.17290537 -0.16380508 -0.027300848 0.04550141 -0.03640113 0.08190254 -0.10920339
0.10920339 -0.2093065 -0.39131215 0.16380508 -0.10010311 -0.018200565 -0.11830367 0.0
0.14560452 0.09100282 -0.009100283 -0.15470481 -0.03640113 0.14560452 -0.10920339 -0.018200565
0.11830367 0.03640113 -0.16380508 0.08190254 0.054601695 0.07280226 -0.30940962 0.08190254
0.17290537 0.18200564 0.20020622 -0.2639082 -0.16380508 -0.17290537 -0.2093065 -0.27300847
0.0 -0.13650423 -0.17290537 -0.28210875 0.06370198 -0.27300847 -0.10010311 -0.054601695
-0.20020622 0.04550141 0.16380508 -0.04550141 -0.06370198 -0.21840678 0.14560452 -0.027300848
-0.19110593 0.07280226 -0.16380508 0.14560452 0.30940962 -0.23660734 -0.09100282 0.06370198
0.10920339 -0.03640113 0.12740396 0.2093065 -0.03640113 0.10920339 0.19110593 -0.018200565

tfl.pseudo_qconst6 i1 [128, 512] scale=0.0040291725 zero_point=0
00000000: e80b e9fd f50c 0ae8 e917 ff18 1fef 110e
00000010: 03f3 0807 0d07 0b00 0fe7 03ff eafc f6ff
00000020: f100 e1f9 0d10 0bf0 0319 1408 fbf5 0cf3
00000030: 0618 111b 1bf6 10fe e2d5 e411 fae2 2700
00000040: fe1f 09e6 fdf6 0a17 030e 0708 e910 0000
00000050: f1ee ee0b 0f21 f6eb 10f6 fdef f7eb ffe3
00000060: 1109 edf6 110a fd0c ef20 1be7 1b1b 2a1d
00000070: 020c d60b 08f1 1aee f812 17f3 0406 fe12
00000080: f5fa f6fe f1f2 f7f1 09f9 11ff eeef 18f6
00000090: f2fe f211 1514 0ff9 11f4 f91c f5f1 fb02
000000a0: 1204 f7fe f5fb 08ea fc0c ff08 0220 24f7
000000b0: 02ea fd26 0409 19f7 08ca f8f1 15d8 1dfa
000000c0: 03fd 18f4 0502 e4fc 011f 0e07 f305 fde9
000000d0: 1203 f3e8 07e7 f526 0505 0ae3 00ff e904
000000e0: 13fe e800 110b 09f9 eb05 2609 01f3 e706
000000f0: fedf d917 0810 f806 012e e70d d5d8 f6f0
-0.09670014 0.044320896 -0.09267097 -0.012087517 -0.044320896 0.04835007 0.040291727 -0.09670014
-0.09267097 0.09267097 -0.0040291725 0.09670014 0.12490435 -0.06849593 0.06849593 0.056408413
0.012087517 -0.052379243 0.03223338 0.028204206 0.052379243 0.028204206 0.044320896 0.0
0.060437586 -0.10072931 0.012087517 -0.0040291725 -0.08864179 -0.01611669 -0.040291727 -0.0040291725
-0.060437586 0.0 -0.12490435 -0.028204206 0.052379243 0.06446676 0.044320896 -0.06446676
0.012087517 0.10072931 0.08058345 0.03223338 -0.020145863 -0.044320896 0.04835007 -0.052379243
0.024175035 0.09670014 0.06849593 0.108787656 0.108787656 -0.040291727 0.06446676 -0.008058345
-0.12087517 -0.17325442 -0.112816826 0.06849593 -0.024175035 -0.12087517 0.15713772 0.0
-0.008058345 0.12490435 0.036262553 -0.104758486 -0.012087517 -0.040291727 0.040291727 0.09267097
0.012087517 0.056408413 0.028204206 0.03223338 -0.09267097 0.06446676 0.0 0.0
-0.060437586 -0.07252511 -0.07252511 0.044320896 0.060437586 0.13296269 -0.040291727 -0.08461262
0.06446676 -0.040291727 -0.012087517 -0.06849593 -0.036262553 -0.08461262 -0.0040291725 -0.116846
0.06849593 0.036262553 -0.076554276 -0.040291727 0.06849593 0.040291727 -0.012087517 0.04835007
-0.06849593 0.12893352 0.108787656 -0.10072931 0.108787656 0.108787656 0.16922525 0.116846
0.008058345 0.04835007 -0.16922525 0.044320896 0.03223338 -0.060437586 0.104758486 -0.07252511
-0.03223338 0.07252511 0.09267097 -0.052379243 0.01611669 0.024175035 -0.008058345 0.07252511
-0.044320896 -0.024175035 -0.040291727 -0.008058345 -0.060437586 -0.056408413 -0.036262553 -0.060437586
0.036262553 -0.028204206 0.06849593 -0.0040291725 -0.07252511 -0.06849593 0.09670014 -0.040291727
-0.056408413 -0.008058345 -0.056408413 0.06849593 0.08461262 0.08058345 0.060437586 -0.028204206
0.06849593 -0.04835007 -0.028204206 0.112816826 -0.044320896 -0.060437586 -0.020145863 0.008058345
0.07252511 0.01611669 -0.036262553 -0.008058345 -0.044320896 -0.020145863 0.03223338 -0.08864179
-0.01611669 0.04835007 -0.0040291725 0.03223338 0.008058345 0.12893352 0.14505021 -0.036262553
0.008058345 -0.08864179 -0.012087517 0.15310855 0.01611669 0.036262553 0.10072931 -0.036262553
0.03223338 -0.21757531 -0.03223338 -0.060437586 0.08461262 -0.1611669 0.116846 -0.024175035
0.012087517 -0.012087517 0.09670014 -0.04835007 0.020145863 0.008058345 -0.112816826 -0.01611669
0.0040291725 0.12490435 0.056408413 0.028204206 -0.052379243 0.020145863 -0.012087517 -0.09267097
0.07252511 0.012087517 -0.052379243 -0.09670014 0.028204206 -0.10072931 -0.044320896 0.15310855
0.020145863 0.020145863 0.040291727 -0.116846 0.0 -0.0040291725 -0.09267097 0.01611669
0.076554276 -0.008058345 -0.09670014 0.0 0.06849593 0.044320896 0.036262553 -0.028204206
-0.08461262 0.020145863 0.15310855 0.036262553 0.0040291725 -0.052379243 -0.10072931 0.024175035
-0.008058345 -0.13296269 -0.15713772 0.09267097 0.03223338 0.06446676 -0.03223338 0.024175035
0.0040291725 0.18534194 -0.10072931 0.052379243 -0.17325442 -0.1611669 -0.040291727 -0.06446676
